model/model.pth (torch_old, 16189 bytes, 4 tensors)

linear1.weight f4 [256, 11]
00000000: ea8d 6ebd 32b9 653c 6731 cdbe e3b8 e9bd
00000010: a3a6 343e 4a24 31be 48e5 ccbe 8430 acbe
00000020: dd2c 663e 7c11 ccbe 5e07 07be cdef 113d
00000030: 7853 fd3b 8119 0c3c c733 afbe aee6 c7bd
00000040: 7a8f de3d 16a6 b33e 2566 cf3e 68a0 7a3e
00000050: f63e 0cbd fc2b 8bbe fc6f ffbe 0ac6 683e
00000060: 96e0 2cbd b131 3fbd 573b cebe 4cbd 463e
00000070: 8888 13bd 6c33 4f3e b119 fabe 50a0 313e
00000080: 1b7a bf3e b12c 933e 89ba df3d 592f f6be
00000090: e6b9 633c 48cb eabe 89f1 b93d 519d 93bc
000000a0: e79e 263e 091e b33e ccd3 86bd c8c6 5c3c
000000b0: 1b28 a23e e650 21bf 2816 113e 7a47 263e
000000c0: 209d 80bd e44f 503e 5258 d3bd eb90 283e
000000d0: e816 3e3e 2e29 303e a0a2 823e 6516 113f
000000e0: 6e21 29bf f986 993e 2c1c 3a3e 445e 6dbe
000000f0: 2bbe 033e 48f2 1abe 8f9d 03be dac1 a63e
00000100: 6802 acbb 0ccf 913e c8f7 963e d5df 013f
00000110: 0e2c c23e 6fbd 083e d4be a7bd 885f 18bc
00000120: 10ad eabd 0e87 e23e 5499 663e 69c5 a43e
00000130: 35df 7f3e ee97 903e 3332 b5be 2012 f53d
00000140: 701a cfbd 94b5 08bf f243 843e 772a 79be
00000150: 18aa bfbe 067e c0be 05f8 953e 3fd8 abbe
00000160: d0aa 793d 4ded 06bf 6c48 083f c65c b8bd
00000170: 03f5 813e b0cb 273c f850 c93e 6d9f 00be
00000180: b167 ecbe 3571 4c3e 2052 f53d e882 1c3e
00000190: 248b 763d d628 4c3c 67af afbe f0ff 903c
000001a0: 4811 413e 0d1b b4be a41a 2ebe e3eb 00bf
000001b0: ef94 3b3e af30 b6be 3c86 d7bd 9ce7 173e
000001c0: 888c d7be cee8 98be 83a9 d2be 6087 83bc
000001d0: 17ba 7ebe 36a5 9ebe d2dc 213d 7d46 f03c
000001e0: dbd0 d83d bb1f bb3e 08ab 00bd 9716 34be
000001f0: 4040 37be b519 023f 8486 383e b9fe 463e
00000200: ee07 753e ae5d c0be 751a d8bd 8fc6 0ebe
00000210: 8e17 6f3e fd22 81be 8d9d 133f 3cde 31bd
00000220: 7969 ae3e 8636 9c3d c25d 5a3e 51de e83d
00000230: 0a9f 6ebe 3c7c 42be 3ed0 ca3d 1831 0bbf
00000240: 2ae1 8c3e 32c7 0c3f 8ce6 a03e 33a5 e33d
00000250: a0c4 bd3e e545 913e b5ef 3cbe ecf1 9cbd
00000260: ed54 2bbe fb39 ebbc eca7 5f3e 2b30 d03e
00000270: f1d2 873e ca66 883d d323 afbe bf87 683e
00000280: edde 02be 5b0f d03b c9ce cf3e 4cc6 aebd
00000290: 08c4 483e 5ef2 b9be 6ec2 bc3e ef9c 00bf
000002a0: f53e 4e3e 1c5a cdbe 7deb 383e 2302 8dbe
000002b0: 9bf3 a13d 6305 eebe d2fa 303d 44ad 92be
000002c0: fed6 08bd aa6d 9d3d a765 2bbe 1cbb 803e
000002d0: 68d2 a5be 8fe8 8abe 0f14 d03d f607 01be
000002e0: d614 ddbe 578a b93e 57fb 46be fc30 d0be
000002f0: f9ed 143e 5ddb c13e 75de af3e 28de 363d
00000300: e44b 0bbe 4919 05be 0187 453e 68f8 793d
00000310: bba5 02bf 0bf7 c6bd d609 50be 06e2 f83c
00000320: 107a a4bd 33c9 8bbe 57b1 82be 00d1 0b3c
00000330: 63e8 2e3e c338 7ebd b971 93bd f126 773c
00000340: 83a1 0fbe 4421 eabd c4e7 0dbe 2518 73be
00000350: 103e 96be f5e0 a33e 637e acbe ce5d abbe
00000360: 6714 cbbe ee63 613e e3ae 913c 1caf 83be
00000370: e353 a4bc ecbd f3be fe35 c93d e98b 733e
00000380: 07d2 28be 2f63 b43d abd9 cebe 7abe a7be
00000390: d42e 953e c793 b6bd 652b bc3e 0f74 483e
000003a0: 3c57 11bf aacd 173f 6822 2c3e 0260 f2bd
000003b0: ffa7 8ebd cb1e 9ebe b624 213e 2064 4c3e
000003c0: 8eb1 e7bc 1d02 123e f32d ccbe 70f2 3a3d
000003d0: 1f21 103f ba10 a13e 26d2 c03e 7abd b4be
000003e0: fbeb 5dbe 3896 b93e f183 f53e 9556 a5be
000003f0: b887 90be ccfc 043e 5cb6 233d 13ba 243e
-0.05824081 0.014021205 -0.40076753 -0.114122175 0.17641692 -0.17299 -0.40018678 -0.33630764
0.22478051 -0.3985709 -0.13186404 0.035629082 0.0077308975 0.0085510025 -0.3421919 -0.097607955
0.1086721 0.3508765 0.40507618 0.24475253 -0.03423973 -0.27181995 -0.49890125 0.22731796
-0.04220637 -0.04667825 -0.40279648 0.19408149 -0.03601888 0.2023446 -0.48847726 0.1734631
0.37397847 0.28745034 0.10924251 -0.48082998 0.013899302 -0.45858216 0.09079272 -0.01801935
0.16271554 0.34983853 -0.06583366 0.0134751275 0.31671223 -0.63014066 0.14168608 0.16238204
-0.06279969 0.20342976 -0.1031958 0.16461532 0.18563426 0.17203209 0.25514698 0.56674796
-0.66066635 0.29985788 0.18174809 -0.2318049 0.12865512 -0.15131485 -0.12853073 0.32569772
-0.0052493103 0.28478277 0.29485917 0.50732166 0.37924236 0.13353513 -0.081906945 -0.00930012
-0.1145879 0.44243664 0.22519428 0.32181862 0.2498749 0.28240913 -0.3538986 0.11966348
-0.101124644 -0.53402066 0.25833088 -0.24332605 -0.3743446 -0.37596148 0.29290786 -0.3356342
0.060953915 -0.5270584 0.53235507 -0.0900207 0.25382242 0.010241434 0.39319587 -0.12560816
-0.4617286 0.1996506 0.11978555 0.15284312 0.06019129 0.012460908 -0.3431351 0.017700166
0.18854249 -0.35176888 -0.1700235 -0.50359935 0.18318532 -0.35584018 -0.1052365 0.14834446
-0.42099404 -0.29865116 -0.41144952 -0.016055763 -0.24875675 -0.3098542 0.03951723 0.029330486
0.10586711 0.36547646 -0.031413108 -0.17586742 -0.17895603 0.50820476 0.18020064 0.19433106
0.23928806 -0.37571472 -0.10551921 -0.13942932 0.23348829 -0.25222006 0.5766228 -0.04342483
0.34064844 0.07627587 0.21324828 0.113705285 -0.23302856 -0.18992704 0.09903 -0.54371786
0.27515537 0.5499145 0.31425893 0.111154936 0.37064075 0.28373638 -0.18450816 -0.076633304
-0.16731615 -0.02871417 0.21841401 0.4066175 0.26528123 0.066602305 -0.3420702 0.22708033
-0.12780352 0.0063494868 0.40587452 -0.08533916 0.1960603 -0.36317724 0.36867088 -0.5023946
0.20141204 -0.4010781 0.18058582 -0.27540693 0.07907792 -0.46488485 0.04320795 -0.28647816
-0.033408158 0.076869324 -0.16737996 0.25142753 -0.3238709 -0.27130553 0.10160076 -0.12600693
-0.4317996 0.36238357 -0.19431816 -0.40662372 0.14543904 0.37862673 0.3434941 0.04464546
-0.13603169 -0.12997927 0.19289781 0.061027914 -0.51034135 -0.097150885 -0.20316252 0.030381214
-0.08031094 -0.2730194 -0.25525925 0.008533716 0.17080836 -0.06206585 -0.07199425 0.015084968
-0.14026456 -0.11432126 -0.13857943 -0.23739679 -0.29344225 0.32007566 -0.33690175 -0.33470005
-0.39664003 0.22010776 0.017783588 -0.25719535 -0.020059532 -0.47605836 0.09824751 0.2378384
-0.16486369 0.0880798 -0.40400442 -0.3276251 0.2913729 -0.08914905 0.36751857 0.19575523
-0.56773734 0.59298193 0.1681 -0.11834718 -0.069656365 -0.30882868 0.1573666 0.1996007
-0.028282907 0.14258619 -0.39878806 0.045641363 0.5630054 0.31458074 0.3766033 -0.3530081
-0.2167205 0.3624742 0.47952226 -0.3229262 -0.28228545 0.1298706 0.039968833 0.16086607

linear1.bias f4 [256]
00000000: 4f1e 2dbd 3cfb e2bd 9fe1 eb3d c364 253c
00000010: 256c 24be e18e 0ebe 7391 1ebe 97f8 d13b
00000020: 4d97 aabd c9e7 be3d 7ecf e3bd 23d7 f8bd
00000030: a265 1abe 54a6 923e bc24 a8bd 7396 253d
00000040: f168 22be 4f10 543e 4e16 93be 73c3 603d
00000050: a5a5 1a3c 463c d53d 68c3 cdbc f370 a1be
00000060: 4cfa b73d 4f28 d5bd 675d 953d d8f0 52be
00000070: 0d00 84be 8cb0 6ebe ddf5 273c ef79 b8bc
00000080: 42ec 2c3e 31c5 a73d 260d fcbc 4d0e 393d
00000090: 73c3 9a3d c5c8 95be a39f 5abe 30dd 003e
000000a0: fa71 7e3e d692 9fbd ff6c 1ebe cb60 043e
000000b0: 2aa1 273d 4750 50be 1dca 04bd b338 973d
000000c0: f2d8 6b39 d758 23bd f490 06bd c664 dc3d
000000d0: 3e91 443d 638d a33c 55ea 17bd 3fb3 6dbe
000000e0: 5929 c73e badc a1bb 0bce 6abe 2135 883d
000000f0: f89f bebe e843 40bd a950 bd3e 9d0d 1abe
00000100: 65ee 513e f844 a4bd 33c1 703d 688a 60be
00000110: 8caf 0d3d 6872 7f3e 4756 393e 0958 cb3e
00000120: e2f6 91be b16c 273d 2aef 413e b488 0a3d
00000130: 2a28 0ebe 4ae3 363e 2d9d 74be 9123 0d3d
00000140: b879 e4bd eb8b 1bbe 8759 88bd 2eed adbe
00000150: d9ad 313e 9de7 0fbe 8abf f7bd 9823 29bd
00000160: a932 89be 398e 1dbd e7d5 acbe f209 45be
00000170: 0b42 cebd 6ae7 dc3d b694 80be 6851 5e3e
00000180: e5a3 a8bc cf48 c63c b136 2abe b428 aabc
00000190: b94b 463d 1d46 2b3d 14d1 53be e87f fd3d
000001a0: 0ab6 a2be 7228 eabd 033c ab3d d8ca 043e
000001b0: b2dc 2d3e ac1c aa3b adf1 85bc afa6 a63d
000001c0: 9632 c63d caf6 5ebb f6f0 49bd 85d0 0f3e
000001d0: 31e5 ecbe 7630 0e3e 9366 333d 55ff dbbd
000001e0: af4e 973b af5d 85be fe2a 8cbc e84a 6ebd
000001f0: 6097 34bb 82c7 97bd a04b 91be e979 6fbe
00000200: 6a79 0dbe e5ce 58be 6226 24be 65fc 13bc
00000210: 4069 5a3e ced1 20be 08fd 633d 1e44 a9bc
00000220: 18ee 1a3c 874a eb3e c897 d03e b483 3abe
00000230: e4ae 84be ad2d b3bb 0e45 553d 4119 e8bd
00000240: ce4e 5b3d c221 d03d 33ee 9cbe 486d c33b
00000250: 3433 f4bd 4624 63be 439f efbc 177a 42be
00000260: f035 803d 9f46 c9be 24fa 61be 11ed 6cbe
00000270: 32fb b93c f43b d4be 23be 8cbe 6eab e5bd
00000280: 3034 dabe c85b d7bd 3a75 0fbd 92fa c5bd
00000290: e126 9bbe 7f68 0ebc d0de 863d 65b4 d23d
000002a0: aa7d afbd 8fd1 d3bd 2d1c 8a3e a8bd 453e
000002b0: 7bd3 73bd 12a9 2a3e 9b16 dd3d 0d89 17be
000002c0: b8ca 0bbe e5a2 e83d b3f8 00be 1568 2e3d
000002d0: b58d 7a3d 696f a7be 95de d83d 6cad 223f
000002e0: 8316 073e 2332 683e 87f0 5abd c3d6 c83e
000002f0: 27ed 01be e1a8 28be dbf0 313e d579 423e
00000300: d4d8 02be 0e51 80be 0e1e 0d3d be4c 733e
00000310: 3d04 8c3e ff3f acbe 8827 7dbe db14 28be
00000320: a432 8abe f536 34be 772d 37be 85ce 3a3e
00000330: 4914 b13e 4555 68be 5aae 96be 928e 59be
00000340: 4a63 6ebc ac6c ef3d b04b 5dbd dfad 09bb
00000350: 2f64 d43c 0434 25be 1059 40bd d42f 07be
00000360: cf8f 9abe 5e41 abbe fa6f d5bc 3971 aabe
00000370: 88f3 c0be 03f5 febd da87 15bc c58a d0bc
00000380: b5a4 bf3d 7682 a2be ccd9 b23e 76d1 7cbd
00000390: e1fa b13c 4d0e 1d3f 5336 8dbe c068 00be
000003a0: bd80 10be dcd8 0b3e eee7 1f3e 8cb4 5dbd
000003b0: cc59 b83e 098e fa3c 4934 82bd dec7 e8bd
000003c0: 89ec 69be 519e 323e 8a10 023e ad3d 60bc
000003d0: 1fc4 8c3e 4607 4cbe 5dff 2e3e f810 a13d
000003e0: f014 a43e d3ec c33d 5533 61be c7e6 923c
000003f0: 677b 0dbe 67ef a43e 2748 94be 07f0 85be
-0.042265233 -0.110830754 0.11517643 0.010094824 -0.16056879 -0.13921691 -0.15485172 0.006407808
-0.083296396 0.09321553 -0.1112356 -0.12150409 -0.15077832 0.28642523 -0.082101315 0.040426683
-0.15860344 0.20709346 -0.28727955 0.054873895 0.009438907 0.10411887 -0.025117591 -0.31531486
0.08983287 -0.10408079 0.07293206 -0.20599687 -0.2578129 -0.23309535 0.0102514895 -0.02251908
0.16887 0.08191908 -0.030767988 0.045179654 0.0755681 -0.29254737 -0.21349959 0.12584376
0.24848166 -0.077916786 -0.15471266 0.12927549 0.040925182 -0.20343123 -0.032419313 0.073838614
0.00022492165 -0.039879646 -0.03285308 0.107614085 0.047990076 0.01996488 -0.03708871 -0.23212908
0.38898733 -0.0049396427 -0.22930162 0.066507585 -0.3723142 -0.04693976 0.369756 -0.15044256
0.20501097 -0.08020967 0.058778 -0.21927798 0.034591243 0.24945986 0.18099318 0.39715603
-0.2850867 0.04087514 0.1893889 0.033821777 -0.13882509 0.17860141 -0.23888083 0.034457747
-0.111560285 -0.15190093 -0.06657701 -0.33970016 0.17351474 -0.14053197 -0.1209708 -0.04129371
-0.26796463 -0.038465712 -0.33756945 -0.19242075 -0.100711904 0.10786326 -0.25113457 0.21710742
-0.020585964 0.02420464 -0.16622426 -0.020771362 0.04841206 0.041814912 -0.20685226 0.12377912
-0.3177951 -0.114334956 0.08361056 0.12968004 0.1697872 0.0051914062 -0.016350592 0.08137261
0.09677617 -0.003402161 -0.049302064 0.14044388 -0.4626861 0.13885674 0.043798994 -0.1074206
0.004617534 -0.26048037 -0.017110344 -0.058176905 -0.0027556047 -0.074111 -0.2837801 -0.23386349
-0.13815847 -0.21172674 -0.16030267 -0.0090323435 0.21329212 -0.15705034 0.05566123 -0.020662364
0.00945618 0.45955297 0.407408 -0.18214303 -0.2591468 -0.0054680915 0.05206781 -0.11332942
0.05354195 0.10162689 -0.30650482 0.005963955 -0.11923829 -0.22181806 -0.029250747 -0.18991886
0.06260288 -0.39311692 -0.22068077 -0.23137309 0.022702787 -0.4145199 -0.27488813 -0.11214338
-0.4261794 -0.10515553 -0.035023905 -0.09666933 -0.303031 -0.008691906 0.06585467 0.10288314
-0.085688904 -0.103427045 0.2697462 0.1931063 -0.059527855 0.16666058 0.10795327 -0.14798374
-0.1365155 0.11359195 -0.12594871 0.04257973 0.0611703 -0.32702187 0.10589329 0.6354587
0.13192181 0.22675376 -0.05345204 0.3922635 -0.12688123 -0.16470672 0.17377035 0.18991788
-0.12778026 -0.2506184 0.03445249 0.23759744 0.27346984 -0.33642575 -0.24722111 -0.16414206
-0.2699176 -0.1759909 -0.17888437 0.18242843 0.3458579 -0.22688778 -0.29429895 -0.21245793
-0.01455004 0.116906494 -0.05402726 -0.0021008176 0.025926678 -0.16133124 -0.046959937 -0.13201839
-0.30187842 -0.3344831 -0.026054371 -0.33289507 -0.376858 -0.12449076 -0.009126628 -0.025456795
0.09357587 -0.3174016 0.3493179 -0.061723195 0.021726074 0.61349946 -0.2758051 -0.12539959
-0.1411161 0.13656944 0.15615818 -0.05412726 0.3600601 0.030585306 -0.06357629 -0.11366247
-0.22844137 0.17443205 0.12701622 -0.01368658 0.2749338 -0.1992465 0.17089601 0.07864565
0.32047224 0.09566655 -0.21992238 0.017932309 -0.13816606 0.322139 -0.28961298 -0.2615969

linear2.weight f4 [3, 256]
00000000: c10f 523e fbdd d8be 7a15 6d3e dbba 05be
00000010: 9bfb 5fbd 0aa9 43be 2643 06be 03ab 8f3e
00000020: ce17 2d3e d743 243e e38a 31bd 1db3 cebe
00000030: afe4 b53c 9fef b03e 2819 1abe 8e00 803e
00000040: ebbe 8dbe 8b80 b23e dc4c eb3c d1de ad3e
00000050: b109 5dbe 7e1d babc e11d d73e fbbb 1abc
00000060: 0c41 86bb 23ac 98bd 63cf 933e 6a04 d2be
00000070: ec05 8bbc 4273 dc3c 9fca dcbd a145 74be
00000080: ed06 093e 1391 0b3c e58d a23e b633 d9bd
00000090: 3fa2 a63e 2fa6 95be 6940 01be 64a1 0d3e
000000a0: 1521 b03e 2ce9 83be cccd cebd 10fe 8e3e
000000b0: 08e2 77be 2d7b 873d 0337 853c 50cc ffbd
000000c0: 87c8 bdbc 0f02 f2be df91 c6bc 13bc 963e
000000d0: 23ef 683c d2d8 0b3e f796 6fbe 9475 953c
000000e0: 1f9e 983e 73dc d7be bfa1 c1bd 8074 d53d
000000f0: fa72 9dbc a2f1 a3bd 53a9 933e b5d9 12bd
00000100: 62f3 5a3c 2346 8dbd 624c 7c3e e34a e8bd
00000110: 889e 99bc a40e 0a3e 3e27 143e 5ec0 893e
00000120: b34e 04bc 21e8 02bd 4a1f 023e 79e8 4bbf
00000130: 5e62 49bd dfc7 743e 35ca ad3b e274 b83e
00000140: df6d 95be 6bcb 39be 981f d1be 61e8 7e3d
00000150: ee98 743d 81a9 eb3e 2f2c b3bb 1af2 e2bd
00000160: 1f0a 8bbe 3747 a13e 9861 d7bb 97e3 45be
00000170: 89dc 40be 7c53 8f3d 9ed9 d6bc d9f2 5e3d
00000180: 0154 8f3d 7705 52bd a3b2 44bf ce5e a0be
00000190: ef59 34be 29a9 5d3c d86e b9bd 2b2c 9e3e
000001a0: f6dc a9be 8dbc 21be 3a5c 303b d488 ddbb
000001b0: b5a6 2fbe 0151 803e cd56 5c3e e31d 5a3e
000001c0: 2e1f 0fbf 2c63 c9be c0e2 c3be 3025 0f3e
000001d0: 054d a53b ca18 e6bd eafb 13bb 62f0 60be
000001e0: 4521 d73e 55bf 6dbe 78b4 f53c 9ef9 84be
000001f0: d0b8 b63e f062 52bc 6d1a b2be c23d 9ebe
00000200: 2b56 b3be ea89 e4be 3a4f 903e e0f2 31be
00000210: 9b48 5bbe befc b13e 9569 ddbe 8e62 4abf
00000220: 287c 803e 8df8 b33e 5da1 ee3d d65d c3bd
00000230: 0d71 bbbe 46dd b0bd 085e 6b3e 0939 58be
00000240: 5960 973e 7431 ae3d 028c 2ebd b480 8c3d
00000250: e346 13bf 8af9 bfbe 92c2 f33e 8b01 b2be
00000260: 7f98 083e 8a1f 76be a0d2 af3c e4f2 afbe
00000270: a08f 843e 49e4 48be 3c75 18bd ad78 98be
00000280: 58cb 4c3b 67dd 88be c64c b3be 2e45 15bd
00000290: 11cf babe 9281 01be 3245 b2be 0fce d3be
000002a0: ef58 a13e 1cb7 d73d a77a a23e 8942 633e
000002b0: 1301 bfbd 3851 653d 3f0f 113e c3d0 72be
000002c0: a7f2 debd baef f43d 58b3 3bbe ace4 3c3e
000002d0: d71e d63e d58a 7f3d 5678 1e3c 3a03 d63e
000002e0: f058 893e 43d6 7a3e a9a9 2b3d 2494 4e3e
000002f0: ff33 48bf a02d 08bd 9387 9d3e 9ced a93e
00000300: 01da 42be a1fe 2fbd 9149 c83d 50e5 92be
00000310: ee2c 7e3e d487 06bf 721d f9be dabd 2dbc
00000320: ae6b 64bd 3c4b fbbd 06d1 afbe b2dc 8d3e
00000330: b5b8 903e 00d7 a6be ffa9 18be 7b21 7dbe
00000340: eb6d 3a3e e4fd 813d 8a15 e33e 93d1 c3bd
00000350: def5 c83d 5618 52be 4d69 ecbe 1c99 b1be
00000360: 9491 0a3d 6ec5 32bd d9f0 e73e ae1f 7fbc
00000370: c2b8 933c 45aa 25be 673e 26be 1a68 dc3e
00000380: e063 613d ff9c 53bc 4264 6c3e f1e8 96be
00000390: 0ad5 51be 59c3 aa3e 28bc 7c3d 6e2d a9be
000003a0: 946a ddbd 4894 abbe 04d1 8f3e 2f57 b53d
000003b0: 05e6 003e 6ae2 23bd 9431 3cbe 35e4 16bd
000003c0: c0c1 dfbb 0d89 653d 784f 84be 1002 c2bc
000003d0: 7f17 e33d 4b89 c3be 98ea a6be d10c 873e
000003e0: 3490 673e 627f a63e 1c19 1dbe 1418 493e
000003f0: c4fd 1ebe b25d d63e c861 32bd 93cb 02bf
0.20513822 -0.42356858 0.23152724 -0.13059561 -0.05468331 -0.19107452 -0.13111553 0.2806016
0.16903612 0.16041504 -0.043345343 -0.40371028 0.022203771 0.34557816 -0.15048659 0.25000423
-0.2768472 0.34863696 0.028723173 0.33959058 -0.21585728 -0.022719141 0.42014983 -0.009444232
-0.0040971097 -0.074547075 0.2886916 -0.41018993 -0.016970597 0.026910428 -0.107808344 -0.23854686
0.13381548 0.008518475 0.31748882 -0.10605566 0.3254566 -0.2922835 -0.12622227 0.13831097
0.3440024 -0.25763834 -0.100978464 0.2792821 -0.24207318 0.06615291 0.016261583 -0.124901414
-0.023166908 -0.47267196 -0.024239479 0.29440364 0.014217171 0.13656929 -0.23397432 0.018244542
0.29808137 -0.42160377 -0.09454679 0.10422611 -0.019219864 -0.08005072 0.28840122 -0.035852153
0.013363691 -0.06898143 0.24638513 -0.113424085 -0.018752351 0.13482147 0.14468095 0.26904577
-0.008075404 -0.031959657 0.12707248 -0.796516 -0.049166076 0.2390437 0.005303646 0.36026675
-0.29185387 -0.18144004 -0.40844417 0.062233333 0.059716158 0.4602776 -0.0054679136 -0.110813335
-0.2715616 0.31499645 -0.0065729134 -0.193251 -0.18834127 0.06998345 -0.026226815 0.054430816
0.06998444 -0.051274743 -0.7683508 -0.3132233 -0.17612432 0.0135291 -0.09054345 0.30893072
-0.33176392 -0.15794583 0.002691044 -0.006760696 -0.17153437 0.250618 0.21517487 0.21300463
-0.5590695 -0.39333475 -0.38258934 0.1397903 0.005044582 -0.11235197 -0.0022580572 -0.21966699
0.4201757 -0.23217519 0.02999328 -0.25971693 0.35687876 -0.012840971 -0.34785786 -0.30906492
-0.35026678 -0.4463647 0.28185445 -0.17377806 -0.21414416 0.3476314 -0.43244615 -0.7905663
0.25094724 0.35150567 0.11651871 -0.09539382 -0.36609688 -0.086359546 0.22985089 -0.21115507
0.29565695 0.08505526 -0.04261399 0.06860486 -0.5753004 -0.3749507 0.47609383 -0.34766802
0.13339423 -0.24035469 0.021462739 -0.34364998 0.25890827 -0.19618334 -0.03722118 -0.29779568
0.0031249132 -0.26731417 -0.3501951 -0.036442928 -0.36486104 -0.12647083 -0.34818417 -0.41368148
0.31513163 0.10532972 0.317342 0.2219335 -0.09326377 0.05598566 0.14165972 -0.23712449
-0.10886126 0.11959787 -0.18330133 0.18446606 0.41820404 0.06238826 0.009672245 0.41799337
0.26825666 0.24495797 0.041909847 0.20173699 -0.7820434 -0.033246636 0.30767497 0.33189094
-0.19028474 -0.042967442 0.09779657 -0.28690577 0.24821827 -0.5255101 -0.48655277 -0.010604346
-0.055766754 -0.12270209 -0.3433916 0.2770744 0.2826592 -0.32585907 -0.14908598 -0.24719803
0.18205993 0.06347254 0.4435237 -0.095614575 0.098125204 -0.20517096 -0.46174088 -0.34687126
0.03383024 -0.043645315 0.4530094 -0.015571518 0.018032435 -0.16178234 -0.16234742 0.43048173
0.05502689 -0.012915849 0.2308512 -0.29474595 -0.20491424 0.33352163 0.061702877 -0.33042473
-0.10811344 -0.33511567 0.28089154 0.088545196 0.12587745 -0.040010847 -0.18378288 -0.03683873
-0.0068285167 0.056038905 -0.2584188 -0.023682624 0.11088466 -0.38190684 -0.32600856 0.26376966
0.22613603 0.3251906 -0.1534161 0.19638091 -0.15526491 0.4186836 -0.043550283 -0.5109188

linear2.bias f4 [3]
00000000: 0157 763e f1d9 bdbd e573 24bd
0.24056627 -0.09270085 -0.04014959
